{
  "model_architecture": "AdvancedMedicalClassifier(\n  (backbone): EfficientNet(\n    (conv_stem): Conv2d(3, 40, kernel_size=(3, 3), stride=(2, 2), padding=(1, 1), bias=False)\n    (bn1): BatchNormAct2d(\n      40, eps=1e-05, momentum=0.1, affine=True, track_running_stats=True\n      (drop): Identity()\n      (act): SiLU(inplace=True)\n    )\n    (blocks): Sequential(\n      (0): Sequential(\n        (0): DepthwiseSeparableConv(\n          (conv_dw): Conv2d(40, 40, kernel_size=(3, 3), stride=(1, 1), padding=(1, 1), groups=40, bias=False)\n          (bn1): BatchNormAct2d(\n            40, eps=1e-05, momentum=0.1, affine=True, track_running_stats=True\n            (drop): Identity()\n            (act): SiLU(inplace=True)\n          )\n          (aa): Identity()\n          (se): SqueezeExcite(\n            (conv_reduce): Conv2d(40, 10, kernel_size=(1, 1), stride=(1, 1))\n            (act1): SiLU(inplace=True)\n            (conv_expand): Conv2d(10, 40, kernel_size=(1, 1), stride=(1, 1))\n            (gate): Sigmoid()\n          )\n          (conv_pw): Conv2d(40, 24, kernel_size=(1, 1), stride=(1, 1), bias=False)\n          (bn2): BatchNormAct2d(\n            24, eps=1e-05, momentum=0.1, affine=True, track_running_stats=True\n            (drop): Identity()\n            (act): Identity()\n          )\n          (drop_path): Identity()\n        )\n        (1): DepthwiseSeparableConv(\n          (conv_dw): Conv2d(24, 24, kernel_size=(3, 3), stride=(1, 1), padding=(1, 1), groups=24, bias=False)\n          (bn1): BatchNormAct2d(\n            24, eps=1e-05, momentum=0.1, affine=True, track_running_stats=True\n            (drop): Identity()\n            (act): SiLU(inplace=True)\n          )\n          (aa): Identity()\n          (se): SqueezeExcite(\n            (conv_reduce): Conv2d(24, 6, kernel_size=(1, 1), stride=(1, 1))\n            (act1): SiLU(inplace=True)\n            (conv_expand): Conv2d(6, 24, kernel_size=(1, 1), stride=(1, 1))\n            (gate): Sigmoid()\n          )\n          (conv_pw): Conv2d(24, 24, kernel_size=(1, 1), stride=(1, 1), bias=False)\n          (bn2): BatchNormAct2d(\n            24, eps=1e-05, momentum=0.1, affine=True, track_running_stats=True\n            (drop): Identity()\n            (act): Identity()\n          )\n          (drop_path): Identity()\n        )\n      )\n      (1): Sequential(\n        (0): InvertedResidual(\n          (conv_pw): Conv2d(24, 144, kernel_size=(1, 1), stride=(1, 1), bias=False)\n          (bn1): BatchNormAct2d(\n            144, eps=1e-05, momentum=0.1, affine=True, track_running_stats=True\n            (drop): Identity()\n            (act): SiLU(inplace=True)\n          )\n          (conv_dw): Conv2d(144, 144, kernel_size=(3, 3), stride=(2, 2), padding=(1, 1), groups=144, bias=False)\n          (bn2): BatchNormAct2d(\n            144, eps=1e-05, momentum=0.1, affine=True, track_running_stats=True\n            (drop): Identity()\n            (act): SiLU(inplace=True)\n          )\n          (aa): Identity()\n          (se): SqueezeExcite(\n            (conv_reduce): Conv2d(144, 6, kernel_size=(1, 1), stride=(1, 1))\n            (act1): SiLU(inplace=True)\n            (conv_expand): Conv2d(6, 144, kernel_size=(1, 1), stride=(1, 1))\n            (gate): Sigmoid()\n          )\n          (conv_pwl): Conv2d(144, 32, kernel_size=(1, 1), stride=(1, 1), bias=False)\n          (bn3): BatchNormAct2d(\n            32, eps=1e-05, momentum=0.1, affine=True, track_running_stats=True\n            (drop): Identity()\n            (act): Identity()\n          )\n          (drop_path): Identity()\n        )\n        (1): InvertedResidual(\n          (conv_pw): Conv2d(32, 192, kernel_size=(1, 1), stride=(1, 1), bias=False)\n          (bn1): BatchNormAct2d(\n            192, eps=1e-05, momentum=0.1, affine=True, track_running_stats=True\n            (drop): Identity()\n            (act): SiLU(inplace=True)\n          )\n          (conv_dw): Conv2d(192, 192, kernel_size=(3, 3), stride=(1, 1), padding=(1, 1), groups=192, bias=False)\n          (bn2): BatchNormAct2d(\n            192, eps=1e-05, momentum=0.1, affine=True, track_running_stats=True\n            (drop): Identity()\n            (act): SiLU(inplace=True)\n          )\n          (aa): Identity()\n          (se): SqueezeExcite(\n            (conv_reduce): Conv2d(192, 8, kernel_size=(1, 1), stride=(1, 1))\n            (act1): SiLU(inplace=True)\n            (conv_expand): Conv2d(8, 192, kernel_size=(1, 1), stride=(1, 1))\n            (gate): Sigmoid()\n          )\n          (conv_pwl): Conv2d(192, 32, kernel_size=(1, 1), stride=(1, 1), bias=False)\n          (bn3): BatchNormAct2d(\n            32, eps=1e-05, momentum=0.1, affine=True, track_running_stats=True\n            (drop): Identity()\n            (act): Identity()\n          )\n          (drop_path): Identity()\n        )\n        (2): InvertedResidual(\n          (conv_pw): Conv2d(32, 192, kernel_size=(1, 1), stride=(1, 1), bias=False)\n          (bn1): BatchNormAct2d(\n            192, eps=1e-05, momentum=0.1, affine=True, track_running_stats=True\n            (drop): Identity()\n            (act): SiLU(inplace=True)\n          )\n          (conv_dw): Conv2d(192, 192, kernel_size=(3, 3), stride=(1, 1), padding=(1, 1), groups=192, bias=False)\n          (bn2): BatchNormAct2d(\n            192, eps=1e-05, momentum=0.1, affine=True, track_running_stats=True\n            (drop): Identity()\n            (act): SiLU(inplace=True)\n          )\n          (aa): Identity()\n          (se): SqueezeExcite(\n            (conv_reduce): Conv2d(192, 8, kernel_size=(1, 1), stride=(1, 1))\n            (act1): SiLU(inplace=True)\n            (conv_expand): Conv2d(8, 192, kernel_size=(1, 1), stride=(1, 1))\n            (gate): Sigmoid()\n          )\n          (conv_pwl): Conv2d(192, 32, kernel_size=(1, 1), stride=(1, 1), bias=False)\n          (bn3): BatchNormAct2d(\n            32, eps=1e-05, momentum=0.1, affine=True, track_running_stats=True\n            (drop): Identity()\n            (act): Identity()\n          )\n          (drop_path): Identity()\n        )\n      )\n      (2): Sequential(\n        (0): InvertedResidual(\n          (conv_pw): Conv2d(32, 192, kernel_size=(1, 1), stride=(1, 1), bias=False)\n          (bn1): BatchNormAct2d(\n            192, eps=1e-05, momentum=0.1, affine=True, track_running_stats=True\n            (drop): Identity()\n            (act): SiLU(inplace=True)\n          )\n          (conv_dw): Conv2d(192, 192, kernel_size=(5, 5), stride=(2, 2), padding=(2, 2), groups=192, bias=False)\n          (bn2): BatchNormAct2d(\n            192, eps=1e-05, momentum=0.1, affine=True, track_running_stats=True\n            (drop): Identity()\n            (act): SiLU(inplace=True)\n          )\n          (aa): Identity()\n          (se): SqueezeExcite(\n            (conv_reduce): Conv2d(192, 8, kernel_size=(1, 1), stride=(1, 1))\n            (act1): SiLU(inplace=True)\n            (conv_expand): Conv2d(8, 192, kernel_size=(1, 1), stride=(1, 1))\n            (gate): Sigmoid()\n          )\n          (conv_pwl): Conv2d(192, 48, kernel_size=(1, 1), stride=(1, 1), bias=False)\n          (bn3): BatchNormAct2d(\n            48, eps=1e-05, momentum=0.1, affine=True, track_running_stats=True\n            (drop): Identity()\n            (act): Identity()\n          )\n          (drop_path): Identity()\n        )\n        (1): InvertedResidual(\n          (conv_pw): Conv2d(48, 288, kernel_size=(1, 1), stride=(1, 1), bias=False)\n          (bn1): BatchNormAct2d(\n            288, eps=1e-05, momentum=0.1, affine=True, track_running_stats=True\n            (drop): Identity()\n            (act): SiLU(inplace=True)\n          )\n          (conv_dw): Conv2d(288, 288, kernel_size=(5, 5), stride=(1, 1), padding=(2, 2), groups=288, bias=False)\n          (bn2): BatchNormAct2d(\n            288, eps=1e-05, momentum=0.1, affine=True, track_running_stats=True\n            (drop): Identity()\n            (act): SiLU(inplace=True)\n          )\n          (aa): Identity()\n          (se): SqueezeExcite(\n            (conv_reduce): Conv2d(288, 12, kernel_size=(1, 1), stride=(1, 1))\n            (act1): SiLU(inplace=True)\n            (conv_expand): Conv2d(12, 288, kernel_size=(1, 1), stride=(1, 1))\n            (gate): Sigmoid()\n          )\n          (conv_pwl): Conv2d(288, 48, kernel_size=(1, 1), stride=(1, 1), bias=False)\n          (bn3): BatchNormAct2d(\n            48, eps=1e-05, momentum=0.1, affine=True, track_running_stats=True\n            (drop): Identity()\n            (act): Identity()\n          )\n          (drop_path): Identity()\n        )\n        (2): InvertedResidual(\n          (conv_pw): Conv2d(48, 288, kernel_size=(1, 1), stride=(1, 1), bias=False)\n          (bn1): BatchNormAct2d(\n            288, eps=1e-05, momentum=0.1, affine=True, track_running_stats=True\n            (drop): Identity()\n            (act): SiLU(inplace=True)\n          )\n          (conv_dw): Conv2d(288, 288, kernel_size=(5, 5), stride=(1, 1), padding=(2, 2), groups=288, bias=False)\n          (bn2): BatchNormAct2d(\n            288, eps=1e-05, momentum=0.1, affine=True, track_running_stats=True\n            (drop): Identity()\n            (act): SiLU(inplace=True)\n          )\n          (aa): Identity()\n          (se): SqueezeExcite(\n            (conv_reduce): Conv2d(288, 12, kernel_size=(1, 1), stride=(1, 1))\n            (act1): SiLU(inplace=True)\n            (conv_expand): Conv2d(12, 288, kernel_size=(1, 1), stride=(1, 1))\n            (gate): Sigmoid()\n          )\n          (conv_pwl): Conv2d(288, 48, kernel_size=(1, 1), stride=(1, 1), bias=False)\n          (bn3): BatchNormAct2d(\n            48, eps=1e-05, momentum=0.1, affine=True, track_running_stats=True\n            (drop): Identity()\n            (act): Identity()\n          )\n          (drop_path): Identity()\n        )\n      )\n      (3): Sequential(\n        (0): InvertedResidual(\n          (conv_pw): Conv2d(48, 288, kernel_size=(1, 1), stride=(1, 1), bias=False)\n          (bn1): BatchNormAct2d(\n            288, eps=1e-05, momentum=0.1, affine=True, track_running_stats=True\n            (drop): Identity()\n            (act): SiLU(inplace=True)\n          )\n          (conv_dw): Conv2d(288, 288, kernel_size=(3, 3), stride=(2, 2), padding=(1, 1), groups=288, bias=False)\n          (bn2): BatchNormAct2d(\n            288, eps=1e-05, momentum=0.1, affine=True, track_running_stats=True\n            (drop): Identity()\n            (act): SiLU(inplace=True)\n          )\n          (aa): Identity()\n          (se): SqueezeExcite(\n            (conv_reduce): Conv2d(288, 12, kernel_size=(1, 1), stride=(1, 1))\n            (act1): SiLU(inplace=True)\n            (conv_expand): Conv2d(12, 288, kernel_size=(1, 1), stride=(1, 1))\n            (gate): Sigmoid()\n          )\n          (conv_pwl): Conv2d(288, 96, kernel_size=(1, 1), stride=(1, 1), bias=False)\n          (bn3): BatchNormAct2d(\n            96, eps=1e-05, momentum=0.1, affine=True, track_running_stats=True\n            (drop): Identity()\n            (act): Identity()\n          )\n          (drop_path): Identity()\n        )\n        (1): InvertedResidual(\n          (conv_pw): Conv2d(96, 576, kernel_size=(1, 1), stride=(1, 1), bias=False)\n          (bn1): BatchNormAct2d(\n            576, eps=1e-05, momentum=0.1, affine=True, track_running_stats=True\n            (drop): Identity()\n            (act): SiLU(inplace=True)\n          )\n          (conv_dw): Conv2d(576, 576, kernel_size=(3, 3), stride=(1, 1), padding=(1, 1), groups=576, bias=False)\n          (bn2): BatchNormAct2d(\n            576, eps=1e-05, momentum=0.1, affine=True, track_running_stats=True\n            (drop): Identity()\n            (act): SiLU(inplace=True)\n          )\n          (aa): Identity()\n          (se): SqueezeExcite(\n            (conv_reduce): Conv2d(576, 24, kernel_size=(1, 1), stride=(1, 1))\n            (act1): SiLU(inplace=True)\n            (conv_expand): Conv2d(24, 576, kernel_size=(1, 1), stride=(1, 1))\n            (gate): Sigmoid()\n          )\n          (conv_pwl): Conv2d(576, 96, kernel_size=(1, 1), stride=(1, 1), bias=False)\n          (bn3): BatchNormAct2d(\n            96, eps=1e-05, momentum=0.1, affine=True, track_running_stats=True\n            (drop): Identity()\n            (act): Identity()\n          )\n          (drop_path): Identity()\n        )\n        (2): InvertedResidual(\n          (conv_pw): Conv2d(96, 576, kernel_size=(1, 1), stride=(1, 1), bias=False)\n          (bn1): BatchNormAct2d(\n            576, eps=1e-05, momentum=0.1, affine=True, track_running_stats=True\n            (drop): Identity()\n            (act): SiLU(inplace=True)\n          )\n          (conv_dw): Conv2d(576, 576, kernel_size=(3, 3), stride=(1, 1), padding=(1, 1), groups=576, bias=False)\n          (bn2): BatchNormAct2d(\n            576, eps=1e-05, momentum=0.1, affine=True, track_running_stats=True\n            (drop): Identity()\n            (act): SiLU(inplace=True)\n          )\n          (aa): Identity()\n          (se): SqueezeExcite(\n            (conv_reduce): Conv2d(576, 24, kernel_size=(1, 1), stride=(1, 1))\n            (act1): SiLU(inplace=True)\n            (conv_expand): Conv2d(24, 576, kernel_size=(1, 1), stride=(1, 1))\n            (gate): Sigmoid()\n          )\n          (conv_pwl): Conv2d(576, 96, kernel_size=(1, 1), stride=(1, 1), bias=False)\n          (bn3): BatchNormAct2d(\n            96, eps=1e-05, momentum=0.1, affine=True, track_running_stats=True\n            (drop): Identity()\n            (act): Identity()\n          )\n          (drop_path): Identity()\n        )\n        (3): InvertedResidual(\n          (conv_pw): Conv2d(96, 576, kernel_size=(1, 1), stride=(1, 1), bias=False)\n          (bn1): BatchNormAct2d(\n            576, eps=1e-05, momentum=0.1, affine=True, track_running_stats=True\n            (drop): Identity()\n            (act): SiLU(inplace=True)\n          )\n          (conv_dw): Conv2d(576, 576, kernel_size=(3, 3), stride=(1, 1), padding=(1, 1), groups=576, bias=False)\n          (bn2): BatchNormAct2d(\n            576, eps=1e-05, momentum=0.1, affine=True, track_running_stats=True\n            (drop): Identity()\n            (act): SiLU(inplace=True)\n          )\n          (aa): Identity()\n          (se): SqueezeExcite(\n            (conv_reduce): Conv2d(576, 24, kernel_size=(1, 1), stride=(1, 1))\n            (act1): SiLU(inplace=True)\n            (conv_expand): Conv2d(24, 576, kernel_size=(1, 1), stride=(1, 1))\n            (gate): Sigmoid()\n          )\n          (conv_pwl): Conv2d(576, 96, kernel_size=(1, 1), stride=(1, 1), bias=False)\n          (bn3): BatchNormAct2d(\n            96, eps=1e-05, momentum=0.1, affine=True, track_running_stats=True\n            (drop): Identity()\n            (act): Identity()\n          )\n          (drop_path): Identity()\n        )\n        (4): InvertedResidual(\n          (conv_pw): Conv2d(96, 576, kernel_size=(1, 1), stride=(1, 1), bias=False)\n          (bn1): BatchNormAct2d(\n            576, eps=1e-05, momentum=0.1, affine=True, track_running_stats=True\n            (drop): Identity()\n            (act): SiLU(inplace=True)\n          )\n          (conv_dw): Conv2d(576, 576, kernel_size=(3, 3), stride=(1, 1), padding=(1, 1), groups=576, bias=False)\n          (bn2): BatchNormAct2d(\n            576, eps=1e-05, momentum=0.1, affine=True, track_running_stats=True\n            (drop): Identity()\n            (act): SiLU(inplace=True)\n          )\n          (aa): Identity()\n          (se): SqueezeExcite(\n            (conv_reduce): Conv2d(576, 24, kernel_size=(1, 1), stride=(1, 1))\n            (act1): SiLU(inplace=True)\n            (conv_expand): Conv2d(24, 576, kernel_size=(1, 1), stride=(1, 1))\n            (gate): Sigmoid()\n          )\n          (conv_pwl): Conv2d(576, 96, kernel_size=(1, 1), stride=(1, 1), bias=False)\n          (bn3): BatchNormAct2d(\n            96, eps=1e-05, momentum=0.1, affine=True, track_running_stats=True\n            (drop): Identity()\n            (act): Identity()\n          )\n          (drop_path): Identity()\n        )\n      )\n      (4): Sequential(\n        (0): InvertedResidual(\n          (conv_pw): Conv2d(96, 576, kernel_size=(1, 1), stride=(1, 1), bias=False)\n          (bn1): BatchNormAct2d(\n            576, eps=1e-05, momentum=0.1, affine=True, track_running_stats=True\n            (drop): Identity()\n            (act): SiLU(inplace=True)\n          )\n          (conv_dw): Conv2d(576, 576, kernel_size=(5, 5), stride=(1, 1), padding=(2, 2), groups=576, bias=False)\n          (bn2): BatchNormAct2d(\n            576, eps=1e-05, momentum=0.1, affine=True, track_running_stats=True\n            (drop): Identity()\n            (act): SiLU(inplace=True)\n          )\n          (aa): Identity()\n          (se): SqueezeExcite(\n            (conv_reduce): Conv2d(576, 24, kernel_size=(1, 1), stride=(1, 1))\n            (act1): SiLU(inplace=True)\n            (conv_expand): Conv2d(24, 576, kernel_size=(1, 1), stride=(1, 1))\n            (gate): Sigmoid()\n          )\n          (conv_pwl): Conv2d(576, 136, kernel_size=(1, 1), stride=(1, 1), bias=False)\n          (bn3): BatchNormAct2d(\n            136, eps=1e-05, momentum=0.1, affine=True, track_running_stats=True\n            (drop): Identity()\n            (act): Identity()\n          )\n          (drop_path): Identity()\n        )\n        (1): InvertedResidual(\n          (conv_pw): Conv2d(136, 816, kernel_size=(1, 1), stride=(1, 1), bias=False)\n          (bn1): BatchNormAct2d(\n            816, eps=1e-05, momentum=0.1, affine=True, track_running_stats=True\n            (drop): Identity()\n            (act): SiLU(inplace=True)\n          )\n          (conv_dw): Conv2d(816, 816, kernel_size=(5, 5), stride=(1, 1), padding=(2, 2), groups=816, bias=False)\n          (bn2): BatchNormAct2d(\n            816, eps=1e-05, momentum=0.1, affine=True, track_running_stats=True\n            (drop): Identity()\n            (act): SiLU(inplace=True)\n          )\n          (aa): Identity()\n          (se): SqueezeExcite(\n            (conv_reduce): Conv2d(816, 34, kernel_size=(1, 1), stride=(1, 1))\n            (act1): SiLU(inplace=True)\n            (conv_expand): Conv2d(34, 816, kernel_size=(1, 1), stride=(1, 1))\n            (gate): Sigmoid()\n          )\n          (conv_pwl): Conv2d(816, 136, kernel_size=(1, 1), stride=(1, 1), bias=False)\n          (bn3): BatchNormAct2d(\n            136, eps=1e-05, momentum=0.1, affine=True, track_running_stats=True\n            (drop): Identity()\n            (act): Identity()\n          )\n          (drop_path): Identity()\n        )\n        (2): InvertedResidual(\n          (conv_pw): Conv2d(136, 816, kernel_size=(1, 1), stride=(1, 1), bias=False)\n          (bn1): BatchNormAct2d(\n            816, eps=1e-05, momentum=0.1, affine=True, track_running_stats=True\n            (drop): Identity()\n            (act): SiLU(inplace=True)\n          )\n          (conv_dw): Conv2d(816, 816, kernel_size=(5, 5), stride=(1, 1), padding=(2, 2), groups=816, bias=False)\n          (bn2): BatchNormAct2d(\n            816, eps=1e-05, momentum=0.1, affine=True, track_running_stats=True\n            (drop): Identity()\n            (act): SiLU(inplace=True)\n          )\n          (aa): Identity()\n          (se): SqueezeExcite(\n            (conv_reduce): Conv2d(816, 34, kernel_size=(1, 1), stride=(1, 1))\n            (act1): SiLU(inplace=True)\n            (conv_expand): Conv2d(34, 816, kernel_size=(1, 1), stride=(1, 1))\n            (gate): Sigmoid()\n          )\n          (conv_pwl): Conv2d(816, 136, kernel_size=(1, 1), stride=(1, 1), bias=False)\n          (bn3): BatchNormAct2d(\n            136, eps=1e-05, momentum=0.1, affine=True, track_running_stats=True\n            (drop): Identity()\n            (act): Identity()\n          )\n          (drop_path): Identity()\n        )\n        (3): InvertedResidual(\n          (conv_pw): Conv2d(136, 816, kernel_size=(1, 1), stride=(1, 1), bias=False)\n          (bn1): BatchNormAct2d(\n            816, eps=1e-05, momentum=0.1, affine=True, track_running_stats=True\n            (drop): Identity()\n            (act): SiLU(inplace=True)\n          )\n          (conv_dw): Conv2d(816, 816, kernel_size=(5, 5), stride=(1, 1), padding=(2, 2), groups=816, bias=False)\n          (bn2): BatchNormAct2d(\n            816, eps=1e-05, momentum=0.1, affine=True, track_running_stats=True\n            (drop): Identity()\n            (act): SiLU(inplace=True)\n          )\n          (aa): Identity()\n          (se): SqueezeExcite(\n            (conv_reduce): Conv2d(816, 34, kernel_size=(1, 1), stride=(1, 1))\n            (act1): SiLU(inplace=True)\n            (conv_expand): Conv2d(34, 816, kernel_size=(1, 1), stride=(1, 1))\n            (gate): Sigmoid()\n          )\n          (conv_pwl): Conv2d(816, 136, kernel_size=(1, 1), stride=(1, 1), bias=False)\n          (bn3): BatchNormAct2d(\n            136, eps=1e-05, momentum=0.1, affine=True, track_running_stats=True\n            (drop): Identity()\n            (act): Identity()\n          )\n          (drop_path): Identity()\n        )\n        (4): InvertedResidual(\n          (conv_pw): Conv2d(136, 816, kernel_size=(1, 1), stride=(1, 1), bias=False)\n          (bn1): BatchNormAct2d(\n            816, eps=1e-05, momentum=0.1, affine=True, track_running_stats=True\n            (drop): Identity()\n            (act): SiLU(inplace=True)\n          )\n          (conv_dw): Conv2d(816, 816, kernel_size=(5, 5), stride=(1, 1), padding=(2, 2), groups=816, bias=False)\n          (bn2): BatchNormAct2d(\n            816, eps=1e-05, momentum=0.1, affine=True, track_running_stats=True\n            (drop): Identity()\n            (act): SiLU(inplace=True)\n          )\n          (aa): Identity()\n          (se): SqueezeExcite(\n            (conv_reduce): Conv2d(816, 34, kernel_size=(1, 1), stride=(1, 1))\n            (act1): SiLU(inplace=True)\n            (conv_expand): Conv2d(34, 816, kernel_size=(1, 1), stride=(1, 1))\n            (gate): Sigmoid()\n          )\n          (conv_pwl): Conv2d(816, 136, kernel_size=(1, 1), stride=(1, 1), bias=False)\n          (bn3): BatchNormAct2d(\n            136, eps=1e-05, momentum=0.1, affine=True, track_running_stats=True\n            (drop): Identity()\n            (act): Identity()\n          )\n          (drop_path): Identity()\n        )\n      )\n      (5): Sequential(\n        (0): InvertedResidual(\n          (conv_pw): Conv2d(136, 816, kernel_size=(1, 1), stride=(1, 1), bias=False)\n          (bn1): BatchNormAct2d(\n            816, eps=1e-05, momentum=0.1, affine=True, track_running_stats=True\n            (drop): Identity()\n            (act): SiLU(inplace=True)\n          )\n          (conv_dw): Conv2d(816, 816, kernel_size=(5, 5), stride=(2, 2), padding=(2, 2), groups=816, bias=False)\n          (bn2): BatchNormAct2d(\n            816, eps=1e-05, momentum=0.1, affine=True, track_running_stats=True\n            (drop): Identity()\n            (act): SiLU(inplace=True)\n          )\n          (aa): Identity()\n          (se): SqueezeExcite(\n            (conv_reduce): Conv2d(816, 34, kernel_size=(1, 1), stride=(1, 1))\n            (act1): SiLU(inplace=True)\n            (conv_expand): Conv2d(34, 816, kernel_size=(1, 1), stride=(1, 1))\n            (gate): Sigmoid()\n          )\n          (conv_pwl): Conv2d(816, 232, kernel_size=(1, 1), stride=(1, 1), bias=False)\n          (bn3): BatchNormAct2d(\n            232, eps=1e-05, momentum=0.1, affine=True, track_running_stats=True\n            (drop): Identity()\n            (act): Identity()\n          )\n          (drop_path): Identity()\n        )\n        (1): InvertedResidual(\n          (conv_pw): Conv2d(232, 1392, kernel_size=(1, 1), stride=(1, 1), bias=False)\n          (bn1): BatchNormAct2d(\n            1392, eps=1e-05, momentum=0.1, affine=True, track_running_stats=True\n            (drop): Identity()\n            (act): SiLU(inplace=True)\n          )\n          (conv_dw): Conv2d(1392, 1392, kernel_size=(5, 5), stride=(1, 1), padding=(2, 2), groups=1392, bias=False)\n          (bn2): BatchNormAct2d(\n            1392, eps=1e-05, momentum=0.1, affine=True, track_running_stats=True\n            (drop): Identity()\n            (act): SiLU(inplace=True)\n          )\n          (aa): Identity()\n          (se): SqueezeExcite(\n            (conv_reduce): Conv2d(1392, 58, kernel_size=(1, 1), stride=(1, 1))\n            (act1): SiLU(inplace=True)\n            (conv_expand): Conv2d(58, 1392, kernel_size=(1, 1), stride=(1, 1))\n            (gate): Sigmoid()\n          )\n          (conv_pwl): Conv2d(1392, 232, kernel_size=(1, 1), stride=(1, 1), bias=False)\n          (bn3): BatchNormAct2d(\n            232, eps=1e-05, momentum=0.1, affine=True, track_running_stats=True\n            (drop): Identity()\n            (act): Identity()\n          )\n          (drop_path): Identity()\n        )\n        (2): InvertedResidual(\n          (conv_pw): Conv2d(232, 1392, kernel_size=(1, 1), stride=(1, 1), bias=False)\n          (bn1): BatchNormAct2d(\n            1392, eps=1e-05, momentum=0.1, affine=True, track_running_stats=True\n            (drop): Identity()\n            (act): SiLU(inplace=True)\n          )\n          (conv_dw): Conv2d(1392, 1392, kernel_size=(5, 5), stride=(1, 1), padding=(2, 2), groups=1392, bias=False)\n          (bn2): BatchNormAct2d(\n            1392, eps=1e-05, momentum=0.1, affine=True, track_running_stats=True\n            (drop): Identity()\n            (act): SiLU(inplace=True)\n          )\n          (aa): Identity()\n          (se): SqueezeExcite(\n            (conv_reduce): Conv2d(1392, 58, kernel_size=(1, 1), stride=(1, 1))\n            (act1): SiLU(inplace=True)\n            (conv_expand): Conv2d(58, 1392, kernel_size=(1, 1), stride=(1, 1))\n            (gate): Sigmoid()\n          )\n          (conv_pwl): Conv2d(1392, 232, kernel_size=(1, 1), stride=(1, 1), bias=False)\n          (bn3): BatchNormAct2d(\n            232, eps=1e-05, momentum=0.1, affine=True, track_running_stats=True\n            (drop): Identity()\n            (act): Identity()\n          )\n          (drop_path): Identity()\n        )\n        (3): InvertedResidual(\n          (conv_pw): Conv2d(232, 1392, kernel_size=(1, 1), stride=(1, 1), bias=False)\n          (bn1): BatchNormAct2d(\n            1392, eps=1e-05, momentum=0.1, affine=True, track_running_stats=True\n            (drop): Identity()\n            (act): SiLU(inplace=True)\n          )\n          (conv_dw): Conv2d(1392, 1392, kernel_size=(5, 5), stride=(1, 1), padding=(2, 2), groups=1392, bias=False)\n          (bn2): BatchNormAct2d(\n            1392, eps=1e-05, momentum=0.1, affine=True, track_running_stats=True\n            (drop): Identity()\n            (act): SiLU(inplace=True)\n          )\n          (aa): Identity()\n          (se): SqueezeExcite(\n            (conv_reduce): Conv2d(1392, 58, kernel_size=(1, 1), stride=(1, 1))\n            (act1): SiLU(inplace=True)\n            (conv_expand): Conv2d(58, 1392, kernel_size=(1, 1), stride=(1, 1))\n            (gate): Sigmoid()\n          )\n          (conv_pwl): Conv2d(1392, 232, kernel_size=(1, 1), stride=(1, 1), bias=False)\n          (bn3): BatchNormAct2d(\n            232, eps=1e-05, momentum=0.1, affine=True, track_running_stats=True\n            (drop): Identity()\n            (act): Identity()\n          )\n          (drop_path): Identity()\n        )\n        (4): InvertedResidual(\n          (conv_pw): Conv2d(232, 1392, kernel_size=(1, 1), stride=(1, 1), bias=False)\n          (bn1): BatchNormAct2d(\n            1392, eps=1e-05, momentum=0.1, affine=True, track_running_stats=True\n            (drop): Identity()\n            (act): SiLU(inplace=True)\n          )\n          (conv_dw): Conv2d(1392, 1392, kernel_size=(5, 5), stride=(1, 1), padding=(2, 2), groups=1392, bias=False)\n          (bn2): BatchNormAct2d(\n            1392, eps=1e-05, momentum=0.1, affine=True, track_running_stats=True\n            (drop): Identity()\n            (act): SiLU(inplace=True)\n          )\n          (aa): Identity()\n          (se): SqueezeExcite(\n            (conv_reduce): Conv2d(1392, 58, kernel_size=(1, 1), stride=(1, 1))\n            (act1): SiLU(inplace=True)\n            (conv_expand): Conv2d(58, 1392, kernel_size=(1, 1), stride=(1, 1))\n            (gate): Sigmoid()\n          )\n          (conv_pwl): Conv2d(1392, 232, kernel_size=(1, 1), stride=(1, 1), bias=False)\n          (bn3): BatchNormAct2d(\n            232, eps=1e-05, momentum=0.1, affine=True, track_running_stats=True\n            (drop): Identity()\n            (act): Identity()\n          )\n          (drop_path): Identity()\n        )\n        (5): InvertedResidual(\n          (conv_pw): Conv2d(232, 1392, kernel_size=(1, 1), stride=(1, 1), bias=False)\n          (bn1): BatchNormAct2d(\n            1392, eps=1e-05, momentum=0.1, affine=True, track_running_stats=True\n            (drop): Identity()\n            (act): SiLU(inplace=True)\n          )\n          (conv_dw): Conv2d(1392, 1392, kernel_size=(5, 5), stride=(1, 1), padding=(2, 2), groups=1392, bias=False)\n          (bn2): BatchNormAct2d(\n            1392, eps=1e-05, momentum=0.1, affine=True, track_running_stats=True\n            (drop): Identity()\n            (act): SiLU(inplace=True)\n          )\n          (aa): Identity()\n          (se): SqueezeExcite(\n            (conv_reduce): Conv2d(1392, 58, kernel_size=(1, 1), stride=(1, 1))\n            (act1): SiLU(inplace=True)\n            (conv_expand): Conv2d(58, 1392, kernel_size=(1, 1), stride=(1, 1))\n            (gate): Sigmoid()\n          )\n          (conv_pwl): Conv2d(1392, 232, kernel_size=(1, 1), stride=(1, 1), bias=False)\n          (bn3): BatchNormAct2d(\n            232, eps=1e-05, momentum=0.1, affine=True, track_running_stats=True\n            (drop): Identity()\n            (act): Identity()\n          )\n          (drop_path): Identity()\n        )\n      )\n      (6): Sequential(\n        (0): InvertedResidual(\n          (conv_pw): Conv2d(232, 1392, kernel_size=(1, 1), stride=(1, 1), bias=False)\n          (bn1): BatchNormAct2d(\n            1392, eps=1e-05, momentum=0.1, affine=True, track_running_stats=True\n            (drop): Identity()\n            (act): SiLU(inplace=True)\n          )\n          (conv_dw): Conv2d(1392, 1392, kernel_size=(3, 3), stride=(1, 1), padding=(1, 1), groups=1392, bias=False)\n          (bn2): BatchNormAct2d(\n            1392, eps=1e-05, momentum=0.1, affine=True, track_running_stats=True\n            (drop): Identity()\n            (act): SiLU(inplace=True)\n          )\n          (aa): Identity()\n          (se): SqueezeExcite(\n            (conv_reduce): Conv2d(1392, 58, kernel_size=(1, 1), stride=(1, 1))\n            (act1): SiLU(inplace=True)\n            (conv_expand): Conv2d(58, 1392, kernel_size=(1, 1), stride=(1, 1))\n            (gate): Sigmoid()\n          )\n          (conv_pwl): Conv2d(1392, 384, kernel_size=(1, 1), stride=(1, 1), bias=False)\n          (bn3): BatchNormAct2d(\n            384, eps=1e-05, momentum=0.1, affine=True, track_running_stats=True\n            (drop): Identity()\n            (act): Identity()\n          )\n          (drop_path): Identity()\n        )\n        (1): InvertedResidual(\n          (conv_pw): Conv2d(384, 2304, kernel_size=(1, 1), stride=(1, 1), bias=False)\n          (bn1): BatchNormAct2d(\n            2304, eps=1e-05, momentum=0.1, affine=True, track_running_stats=True\n            (drop): Identity()\n            (act): SiLU(inplace=True)\n          )\n          (conv_dw): Conv2d(2304, 2304, kernel_size=(3, 3), stride=(1, 1), padding=(1, 1), groups=2304, bias=False)\n          (bn2): BatchNormAct2d(\n            2304, eps=1e-05, momentum=0.1, affine=True, track_running_stats=True\n            (drop): Identity()\n            (act): SiLU(inplace=True)\n          )\n          (aa): Identity()\n          (se): SqueezeExcite(\n            (conv_reduce): Conv2d(2304, 96, kernel_size=(1, 1), stride=(1, 1))\n            (act1): SiLU(inplace=True)\n            (conv_expand): Conv2d(96, 2304, kernel_size=(1, 1), stride=(1, 1))\n            (gate): Sigmoid()\n          )\n          (conv_pwl): Conv2d(2304, 384, kernel_size=(1, 1), stride=(1, 1), bias=False)\n          (bn3): BatchNormAct2d(\n            384, eps=1e-05, momentum=0.1, affine=True, track_running_stats=True\n            (drop): Identity()\n            (act): Identity()\n          )\n          (drop_path): Identity()\n        )\n      )\n    )\n    (conv_head): Conv2d(384, 1536, kernel_size=(1, 1), stride=(1, 1), bias=False)\n    (bn2): BatchNormAct2d(\n      1536, eps=1e-05, momentum=0.1, affine=True, track_running_stats=True\n      (drop): Identity()\n      (act): SiLU(inplace=True)\n    )\n    (global_pool): SelectAdaptivePool2d(pool_type=, flatten=Identity())\n    (classifier): Identity()\n  )\n  (global_avg_pool): AdaptiveAvgPool2d(output_size=1)\n  (global_max_pool): AdaptiveMaxPool2d(output_size=1)\n  (attention): Sequential(\n    (0): Linear(in_features=1536, out_features=192, bias=True)\n    (1): ReLU(inplace=True)\n    (2): Linear(in_features=192, out_features=1536, bias=True)\n    (3): Sigmoid()\n  )\n  (classifier): Sequential(\n    (0): BatchNorm1d(3072, eps=1e-05, momentum=0.1, affine=True, track_running_stats=True)\n    (1): Dropout(p=0.3, inplace=False)\n    (2): Linear(in_features=3072, out_features=512, bias=True)\n    (3): ReLU(inplace=True)\n    (4): BatchNorm1d(512, eps=1e-05, momentum=0.1, affine=True, track_running_stats=True)\n    (5): Dropout(p=0.15, inplace=False)\n    (6): Linear(in_features=512, out_features=256, bias=True)\n    (7): ReLU(inplace=True)\n    (8): BatchNorm1d(256, eps=1e-05, momentum=0.1, affine=True, track_running_stats=True)\n    (9): Dropout(p=0.075, inplace=False)\n    (10): Linear(in_features=256, out_features=8, bias=True)\n  )\n)",
  "num_classes": 8,
  "class_names": [
    "burn_1and2",
    "burn_3rd",
    "wound_abrasions",
    "wound_bruises",
    "wound_diabetic_wounds",
    "wound_laceration",
    "wound_pressure_wounds",
    "wound_venous_wounds"
  ],
  "input_size": [
    224,
    224
  ],
  "model_type": "AdvancedMedicalClassifier",
  "total_parameters": 13002224,
…
